…
I0111 11:47:36.174367  4839 net.cpp:294] The NetState phase (0) differed from the phase (1) specified by a rule in layer mnist
I0111 11:47:36.174392  4839 net.cpp:294] The NetState phase (0) differed from the phase (1) specified by a rule in layer accuracy
I0111 11:47:36.174515  4839 net.cpp:51] Initializing net from parameters: 
name: "ST_CNN"
state {
  phase: TRAIN
  level: 0
  stage: ""
}
layer {
  name: "mnist"
  type: "Data"
  top: "data"
  top: "label"
  include {
    phase: TRAIN
  }
  transform_param {
    scale: 0.00390625
  }
  data_param {
    source: "examples/mnist/mnist_r_train_lmdb"
    batch_size: 256
    backend: LMDB
  }
}
layer {
  name: "loc_conv1"
  type: "Convolution"
  bottom: "data"
  top: "loc_conv1"
  convolution_param {
    num_output: 20
    kernel_size: 5
    stride: 1
    weight_filler {
      type: "xavier"
    }
    bias_filler {
      type: "constant"
    }
  }
}
layer {
  name: "loc_pool1"
  type: "Pooling"
  bottom: "loc_conv1"
  top: "loc_pool1"
  pooling_param {
    pool: MAX
    kernel_size: 2
    stride: 2
  }
}
layer {
  name: "loc_relu1"
  type: "ReLU"
  bottom: "loc_pool1"
  top: "loc_pool1"
}
layer {
  name: "loc_conv2"
  type: "Convolution"
  bottom: "loc_pool1"
  top: "loc_conv2"
  convolution_param {
    num_output: 20
    kernel_size: 5
    stride: 1
    weight_filler {
      type: "xavier"
    }
    bias_filler {
      type: "constant"
    }
  }
}
layer {
  name: "loc_pool2"
  type: "Pooling"
  bottom: "loc_conv2"
  top: "loc_pool2"
  pooling_param {
    pool: MAX
    kernel_size: 2
    stride: 2
  }
}
layer {
  name: "loc_relu2"
  type: "ReLU"
  bottom: "loc_pool2"
  top: "loc_pool2"
}
layer {
  name: "loc_ip1"
  type: "InnerProduct"
  bottom: "loc_pool2"
  top: "loc_ip1"
  inner_product_param {
    num_output: 20
    weight_filler {
      type: "xavier"
    }
    bias_filler {
      type: "constant"
    }
  }
}
layer {
  name: "loc_relu3"
  type: "ReLU"
  bottom: "loc_ip1"
  top: "loc_ip1"
}
layer {
  name: "loc_reg"
  type: "InnerProduct"
  bottom: "loc_ip1"
  top: "theta"
  inner_product_param {
    num_output: 6
    weight_filler {
      type: "constant"
      value: 0
    }
    bias_filler {
      type: "file"
      file: "examples/mnist_tests/bias_init.txt"
    }
  }
}
layer {
  name: "st_layer"
  type: "SpatialTransformer"
  bottom: "data"
  bottom: "theta"
  top: "st_output"
}
layer {
  name: "conv1"
  type: "Convolution"
  bottom: "st_output"
  top: "conv1"
  convolution_param {
    num_output: 32
    kernel_size: 9
    stride: 1
    weight_filler {
      type: "xavier"
    }
    bias_filler {
      type: "constant"
    }
  }
}
layer {
  name: "pool1"
  type: "Pooling"
  bottom: "conv1"
  top: "pool1"
  pooling_param {
    pool: MAX
    kernel_size: 2
    stride: 2
  }
}
layer {
  name: "relu1"
  type: "ReLU"
  bottom: "pool1"
  top: "pool1"
}
layer {
  name: "conv2"
  type: "Convolution"
  bottom: "pool1"
  top: "conv2"
  convolution_param {
    num_output: 32
    kernel_size: 7
    stride: 1
    weight_filler {
      type: "xavier"
    }
    bias_filler {
      type: "constant"
    }
  }
}
layer {
  name: "pool2"
  type: "Pooling"
  bottom: "conv2"
  top: "pool2"
  pooling_param {
    pool: MAX
    kernel_size: 2
    stride: 2
  }
}
layer {
  name: "relu2"
  type: "ReLU"
  bottom: "pool2"
  top: "pool2"
}
layer {
  name: "classification"
  type: "InnerProduct"
  bottom: "pool2"
  top: "class"
  inner_product_param {
    num_output: 10
    weight_filler {
      type: "xavier"
    }
    bias_filler {
      type: "constant"
    }
  }
}
layer {
  name: "loss"
  type: "SoftmaxWithLoss"
  bottom: "class"
  bottom: "label"
  top: "loss"
}
I0111 11:47:36.174722  4839 layer_factory.hpp:77] Creating layer mnist
I0111 11:47:36.174805  4839 db_lmdb.cpp:35] Opened lmdb examples/mnist/mnist_r_train_lmdb
I0111 11:47:36.174840  4839 net.cpp:84] Creating Layer mnist
I0111 11:47:36.174851  4839 net.cpp:380] mnist -> data
I0111 11:47:36.174876  4839 net.cpp:380] mnist -> label
I0111 11:47:36.175494  4839 data_layer.cpp:45] output data size: 256,1,28,28
I0111 11:47:36.196684  4839 net.cpp:122] Setting up mnist
I0111 11:47:36.196733  4839 net.cpp:129] Top shape: 256 1 28 28 (200704)
I0111 11:47:36.196748  4839 net.cpp:129] Top shape: 256 (256)
I0111 11:47:36.196758  4839 net.cpp:137] Memory required for data: 803840
I0111 11:47:36.196805  4839 layer_factory.hpp:77] Creating layer data_mnist_0_split
I0111 11:47:36.196851  4839 net.cpp:84] Creating Layer data_mnist_0_split
I0111 11:47:36.196883  4839 net.cpp:406] data_mnist_0_split <- data
I0111 11:47:36.196926  4839 net.cpp:380] data_mnist_0_split -> data_mnist_0_split_0
I0111 11:47:36.196964  4839 net.cpp:380] data_mnist_0_split -> data_mnist_0_split_1
I0111 11:47:36.197039  4839 net.cpp:122] Setting up data_mnist_0_split
I0111 11:47:36.197077  4839 net.cpp:129] Top shape: 256 1 28 28 (200704)
I0111 11:47:36.197108  4839 net.cpp:129] Top shape: 256 1 28 28 (200704)
I0111 11:47:36.197137  4839 net.cpp:137] Memory required for data: 2409472
I0111 11:47:36.197167  4839 layer_factory.hpp:77] Creating layer loc_conv1
I0111 11:47:36.197211  4839 net.cpp:84] Creating Layer loc_conv1
I0111 11:47:36.197244  4839 net.cpp:406] loc_conv1 <- data_mnist_0_split_0
I0111 11:47:36.197280  4839 net.cpp:380] loc_conv1 -> loc_conv1
I0111 11:47:36.895761  4839 net.cpp:122] Setting up loc_conv1
I0111 11:47:36.895804  4839 net.cpp:129] Top shape: 256 20 24 24 (2949120)
I0111 11:47:36.895812  4839 net.cpp:137] Memory required for data: 14205952
I0111 11:47:36.895831  4839 layer_factory.hpp:77] Creating layer loc_pool1
I0111 11:47:36.895856  4839 net.cpp:84] Creating Layer loc_pool1
I0111 11:47:36.895864  4839 net.cpp:406] loc_pool1 <- loc_conv1
I0111 11:47:36.895874  4839 net.cpp:380] loc_pool1 -> loc_pool1
I0111 11:47:36.895934  4839 net.cpp:122] Setting up loc_pool1
I0111 11:47:36.895942  4839 net.cpp:129] Top shape: 256 20 12 12 (737280)
I0111 11:47:36.895948  4839 net.cpp:137] Memory required for data: 17155072
I0111 11:47:36.895953  4839 layer_factory.hpp:77] Creating layer loc_relu1
I0111 11:47:36.895964  4839 net.cpp:84] Creating Layer loc_relu1
I0111 11:47:36.895972  4839 net.cpp:406] loc_relu1 <- loc_pool1
I0111 11:47:36.895978  4839 net.cpp:367] loc_relu1 -> loc_pool1 (in-place)
I0111 11:47:36.896477  4839 net.cpp:122] Setting up loc_relu1
I0111 11:47:36.896488  4839 net.cpp:129] Top shape: 256 20 12 12 (737280)
I0111 11:47:36.896494  4839 net.cpp:137] Memory required for data: 20104192
I0111 11:47:36.896502  4839 layer_factory.hpp:77] Creating layer loc_conv2
I0111 11:47:36.896515  4839 net.cpp:84] Creating Layer loc_conv2
I0111 11:47:36.896522  4839 net.cpp:406] loc_conv2 <- loc_pool1
I0111 11:47:36.896531  4839 net.cpp:380] loc_conv2 -> loc_conv2
I0111 11:47:36.899590  4839 net.cpp:122] Setting up loc_conv2
I0111 11:47:36.899616  4839 net.cpp:129] Top shape: 256 20 8 8 (327680)
I0111 11:47:36.899622  4839 net.cpp:137] Memory required for data: 21414912
I0111 11:47:36.899636  4839 layer_factory.hpp:77] Creating layer loc_pool2
I0111 11:47:36.899647  4839 net.cpp:84] Creating Layer loc_pool2
I0111 11:47:36.899653  4839 net.cpp:406] loc_pool2 <- loc_conv2
I0111 11:47:36.899662  4839 net.cpp:380] loc_pool2 -> loc_pool2
I0111 11:47:36.899713  4839 net.cpp:122] Setting up loc_pool2
I0111 11:47:36.899722  4839 net.cpp:129] Top shape: 256 20 4 4 (81920)
I0111 11:47:36.899727  4839 net.cpp:137] Memory required for data: 21742592
I0111 11:47:36.899734  4839 layer_factory.hpp:77] Creating layer loc_relu2
I0111 11:47:36.899741  4839 net.cpp:84] Creating Layer loc_relu2
I0111 11:47:36.899747  4839 net.cpp:406] loc_relu2 <- loc_pool2
I0111 11:47:36.899781  4839 net.cpp:367] loc_relu2 -> loc_pool2 (in-place)
I0111 11:47:36.900023  4839 net.cpp:122] Setting up loc_relu2
I0111 11:47:36.900038  4839 net.cpp:129] Top shape: 256 20 4 4 (81920)
I0111 11:47:36.900043  4839 net.cpp:137] Memory required for data: 22070272
I0111 11:47:36.900049  4839 layer_factory.hpp:77] Creating layer loc_ip1
I0111 11:47:36.900063  4839 net.cpp:84] Creating Layer loc_ip1
I0111 11:47:36.900069  4839 net.cpp:406] loc_ip1 <- loc_pool2
I0111 11:47:36.900077  4839 net.cpp:380] loc_ip1 -> loc_ip1
I0111 11:47:36.900293  4839 net.cpp:122] Setting up loc_ip1
I0111 11:47:36.900302  4839 net.cpp:129] Top shape: 256 20 (5120)
I0111 11:47:36.900308  4839 net.cpp:137] Memory required for data: 22090752
I0111 11:47:36.900319  4839 layer_factory.hpp:77] Creating layer loc_relu3
I0111 11:47:36.900327  4839 net.cpp:84] Creating Layer loc_relu3
I0111 11:47:36.900333  4839 net.cpp:406] loc_relu3 <- loc_ip1
I0111 11:47:36.900341  4839 net.cpp:367] loc_relu3 -> loc_ip1 (in-place)
I0111 11:47:36.900874  4839 net.cpp:122] Setting up loc_relu3
I0111 11:47:36.900889  4839 net.cpp:129] Top shape: 256 20 (5120)
I0111 11:47:36.900895  4839 net.cpp:137] Memory required for data: 22111232
I0111 11:47:36.900902  4839 layer_factory.hpp:77] Creating layer loc_reg
I0111 11:47:36.900912  4839 net.cpp:84] Creating Layer loc_reg
I0111 11:47:36.900918  4839 net.cpp:406] loc_reg <- loc_ip1
I0111 11:47:36.900926  4839 net.cpp:380] loc_reg -> theta
Setting 0th position to 1
Setting 1th position to 0
Setting 2th position to 0
Setting 3th position to 0
Setting 4th position to 1
Setting 5th position to 0
I0111 11:47:36.915369  4839 net.cpp:122] Setting up loc_reg
I0111 11:47:36.915390  4839 net.cpp:129] Top shape: 256 6 (1536)
I0111 11:47:36.915396  4839 net.cpp:137] Memory required for data: 22117376
I0111 11:47:36.915411  4839 layer_factory.hpp:77] Creating layer st_layer
I0111 11:47:36.915426  4839 net.cpp:84] Creating Layer st_layer
I0111 11:47:36.915432  4839 net.cpp:406] st_layer <- data_mnist_0_split_1
I0111 11:47:36.915442  4839 net.cpp:406] st_layer <- theta
I0111 11:47:36.915451  4839 net.cpp:380] st_layer -> st_output
		Spatial Transformer Layer:: LayerSetUp: 	Getting output_H_ and output_W_
		Spatial Transformer Layer:: LayerSetUp: 	output_H_ = 28, output_W_ = 28
		Spatial Transformer Layer:: LayerSetUp: 	Getting pre-defined parameters
		Spatial Transformer Layer:: LayerSetUp: 	Initializing the matrix for output grid
		Spatial Transformer Layer:: LayerSetUp: 	Initializing the matrix for input grid
		Spatial Transformer Layer:: LayerSetUp: 	Initialization finished.
I0111 11:47:36.916302  4839 net.cpp:122] Setting up st_layer
I0111 11:47:36.916318  4839 net.cpp:129] Top shape: 256 1 28 28 (200704)
I0111 11:47:36.916326  4839 net.cpp:137] Memory required for data: 22920192
I0111 11:47:36.916332  4839 layer_factory.hpp:77] Creating layer conv1
I0111 11:47:36.916349  4839 net.cpp:84] Creating Layer conv1
I0111 11:47:36.916357  4839 net.cpp:406] conv1 <- st_output
I0111 11:47:36.916366  4839 net.cpp:380] conv1 -> conv1
I0111 11:47:36.919574  4839 net.cpp:122] Setting up conv1
I0111 11:47:36.919589  4839 net.cpp:129] Top shape: 256 32 20 20 (3276800)
I0111 11:47:36.919595  4839 net.cpp:137] Memory required for data: 36027392
I0111 11:47:36.919612  4839 layer_factory.hpp:77] Creating layer pool1
I0111 11:47:36.919623  4839 net.cpp:84] Creating Layer pool1
I0111 11:47:36.919631  4839 net.cpp:406] pool1 <- conv1
I0111 11:47:36.919639  4839 net.cpp:380] pool1 -> pool1
I0111 11:47:36.919692  4839 net.cpp:122] Setting up pool1
I0111 11:47:36.919699  4839 net.cpp:129] Top shape: 256 32 10 10 (819200)
I0111 11:47:36.919705  4839 net.cpp:137] Memory required for data: 39304192
I0111 11:47:36.919711  4839 layer_factory.hpp:77] Creating layer relu1
I0111 11:47:36.919720  4839 net.cpp:84] Creating Layer relu1
I0111 11:47:36.919726  4839 net.cpp:406] relu1 <- pool1
I0111 11:47:36.919734  4839 net.cpp:367] relu1 -> pool1 (in-place)
I0111 11:47:36.920625  4839 net.cpp:122] Setting up relu1
I0111 11:47:36.920635  4839 net.cpp:129] Top shape: 256 32 10 10 (819200)
I0111 11:47:36.920641  4839 net.cpp:137] Memory required for data: 42580992
I0111 11:47:36.920647  4839 layer_factory.hpp:77] Creating layer conv2
I0111 11:47:36.920660  4839 net.cpp:84] Creating Layer conv2
I0111 11:47:36.920666  4839 net.cpp:406] conv2 <- pool1
I0111 11:47:36.920670  4839 net.cpp:380] conv2 -> conv2
I0111 11:47:36.927027  4839 net.cpp:122] Setting up conv2
I0111 11:47:36.927062  4839 net.cpp:129] Top shape: 256 32 4 4 (131072)
I0111 11:47:36.927083  4839 net.cpp:137] Memory required for data: 43105280
I0111 11:47:36.927098  4839 layer_factory.hpp:77] Creating layer pool2
I0111 11:47:36.927139  4839 net.cpp:84] Creating Layer pool2
I0111 11:47:36.927147  4839 net.cpp:406] pool2 <- conv2
I0111 11:47:36.927206  4839 net.cpp:380] pool2 -> pool2
I0111 11:47:36.927284  4839 net.cpp:122] Setting up pool2
I0111 11:47:36.927292  4839 net.cpp:129] Top shape: 256 32 2 2 (32768)
I0111 11:47:36.927299  4839 net.cpp:137] Memory required for data: 43236352
I0111 11:47:36.927304  4839 layer_factory.hpp:77] Creating layer relu2
I0111 11:47:36.927312  4839 net.cpp:84] Creating Layer relu2
I0111 11:47:36.927319  4839 net.cpp:406] relu2 <- pool2
I0111 11:47:36.927325  4839 net.cpp:367] relu2 -> pool2 (in-place)
I0111 11:47:36.933307  4839 net.cpp:122] Setting up relu2
I0111 11:47:36.933338  4839 net.cpp:129] Top shape: 256 32 2 2 (32768)
I0111 11:47:36.933342  4839 net.cpp:137] Memory required for data: 43367424
I0111 11:47:36.933348  4839 layer_factory.hpp:77] Creating layer classification
I0111 11:47:36.933362  4839 net.cpp:84] Creating Layer classification
I0111 11:47:36.933369  4839 net.cpp:406] classification <- pool2
I0111 11:47:36.933380  4839 net.cpp:380] classification -> class
I0111 11:47:36.933552  4839 net.cpp:122] Setting up classification
I0111 11:47:36.933562  4839 net.cpp:129] Top shape: 256 10 (2560)
I0111 11:47:36.933568  4839 net.cpp:137] Memory required for data: 43377664
I0111 11:47:36.933585  4839 layer_factory.hpp:77] Creating layer loss
I0111 11:47:36.933595  4839 net.cpp:84] Creating Layer loss
I0111 11:47:36.933601  4839 net.cpp:406] loss <- class
I0111 11:47:36.933607  4839 net.cpp:406] loss <- label
I0111 11:47:36.933615  4839 net.cpp:380] loss -> loss
I0111 11:47:36.933630  4839 layer_factory.hpp:77] Creating layer loss
…
I0111 11:47:36.935606  4839 solver.cpp:172] Creating test net (#0) specified by net file: examples/mnist_tests/ST_CNN/ST_CNN.prototxt
I0111 11:47:36.935645  4839 net.cpp:294] The NetState phase (1) differed from the phase (0) specified by a rule in layer mnist
I0111 11:47:36.935771  4839 net.cpp:51] Initializing net from parameters: 
name: "ST_CNN"
state {
  phase: TEST
}
layer {
  name: "mnist"
  type: "Data"
  top: "data"
  top: "label"
  include {
    phase: TEST
  }
  transform_param {
    scale: 0.00390625
  }
  data_param {
    source: "examples/mnist/mnist_r_test_lmdb"
    batch_size: 100
    backend: LMDB
  }
}
layer {
  name: "loc_conv1"
  type: "Convolution"
  bottom: "data"
  top: "loc_conv1"
  convolution_param {
    num_output: 20
    kernel_size: 5
    stride: 1
    weight_filler {
      type: "xavier"
    }
    bias_filler {
      type: "constant"
    }
  }
}
layer {
  name: "loc_pool1"
  type: "Pooling"
  bottom: "loc_conv1"
  top: "loc_pool1"
  pooling_param {
    pool: MAX
    kernel_size: 2
    stride: 2
  }
}
layer {
  name: "loc_relu1"
  type: "ReLU"
  bottom: "loc_pool1"
  top: "loc_pool1"
}
layer {
  name: "loc_conv2"
  type: "Convolution"
  bottom: "loc_pool1"
  top: "loc_conv2"
  convolution_param {
    num_output: 20
    kernel_size: 5
    stride: 1
    weight_filler {
      type: "xavier"
    }
    bias_filler {
      type: "constant"
    }
  }
}
layer {
  name: "loc_pool2"
  type: "Pooling"
  bottom: "loc_conv2"
  top: "loc_pool2"
  pooling_param {
    pool: MAX
    kernel_size: 2
    stride: 2
  }
}
layer {
  name: "loc_relu2"
  type: "ReLU"
  bottom: "loc_pool2"
  top: "loc_pool2"
}
layer {
  name: "loc_ip1"
  type: "InnerProduct"
  bottom: "loc_pool2"
  top: "loc_ip1"
  inner_product_param {
    num_output: 20
    weight_filler {
      type: "xavier"
    }
    bias_filler {
      type: "constant"
    }
  }
}
layer {
  name: "loc_relu3"
  type: "ReLU"
  bottom: "loc_ip1"
  top: "loc_ip1"
}
layer {
  name: "loc_reg"
  type: "InnerProduct"
  bottom: "loc_ip1"
  top: "theta"
  inner_product_param {
    num_output: 6
    weight_filler {
      type: "constant"
      value: 0
    }
    bias_filler {
      type: "file"
      file: "examples/mnist_tests/bias_init.txt"
    }
  }
}
layer {
  name: "st_layer"
  type: "SpatialTransformer"
  bottom: "data"
  bottom: "theta"
  top: "st_output"
}
layer {
  name: "conv1"
  type: "Convolution"
  bottom: "st_output"
  top: "conv1"
  convolution_param {
    num_output: 32
    kernel_size: 9
    stride: 1
    weight_filler {
      type: "xavier"
    }
    bias_filler {
      type: "constant"
    }
  }
}
layer {
  name: "pool1"
  type: "Pooling"
  bottom: "conv1"
  top: "pool1"
  pooling_param {
    pool: MAX
    kernel_size: 2
    stride: 2
  }
}
layer {
  name: "relu1"
  type: "ReLU"
  bottom: "pool1"
  top: "pool1"
}
layer {
  name: "conv2"
  type: "Convolution"
  bottom: "pool1"
  top: "conv2"
  convolution_param {
    num_output: 32
    kernel_size: 7
    stride: 1
    weight_filler {
      type: "xavier"
    }
    bias_filler {
      type: "constant"
    }
  }
}
layer {
  name: "pool2"
  type: "Pooling"
  bottom: "conv2"
  top: "pool2"
  pooling_param {
    pool: MAX
    kernel_size: 2
    stride: 2
  }
}
layer {
  name: "relu2"
  type: "ReLU"
  bottom: "pool2"
  top: "pool2"
}
layer {
  name: "classification"
  type: "InnerProduct"
  bottom: "pool2"
  top: "class"
  inner_product_param {
    num_output: 10
    weight_filler {
      type: "xavier"
    }
    bias_filler {
      type: "constant"
    }
  }
}
layer {
  name: "accuracy"
  type: "Accuracy"
  bottom: "class"
  bottom: "label"
  top: "accuracy"
  include {
    phase: TEST
  }
}
layer {
  name: "loss"
  type: "SoftmaxWithLoss"
  bottom: "class"
  bottom: "label"
  top: "loss"
}
I0111 11:47:36.935976  4839 layer_factory.hpp:77] Creating layer mnist
I0111 11:47:36.936035  4839 db_lmdb.cpp:35] Opened lmdb examples/mnist/mnist_r_test_lmdb
I0111 11:47:36.936058  4839 net.cpp:84] Creating Layer mnist
I0111 11:47:36.936065  4839 net.cpp:380] mnist -> data
I0111 11:47:36.936074  4839 net.cpp:380] mnist -> label
I0111 11:47:36.936218  4839 data_layer.cpp:45] output data size: 100,1,28,28
I0111 11:47:36.948132  4839 net.cpp:122] Setting up mnist
I0111 11:47:36.948173  4839 net.cpp:129] Top shape: 100 1 28 28 (78400)
I0111 11:47:36.948184  4839 net.cpp:129] Top shape: 100 (100)
I0111 11:47:36.948189  4839 net.cpp:137] Memory required for data: 314000
I0111 11:47:36.948197  4839 layer_factory.hpp:77] Creating layer data_mnist_0_split
I0111 11:47:36.948237  4839 net.cpp:84] Creating Layer data_mnist_0_split
I0111 11:47:36.948246  4839 net.cpp:406] data_mnist_0_split <- data
I0111 11:47:36.948256  4839 net.cpp:380] data_mnist_0_split -> data_mnist_0_split_0
I0111 11:47:36.948269  4839 net.cpp:380] data_mnist_0_split -> data_mnist_0_split_1
I0111 11:47:36.948334  4839 net.cpp:122] Setting up data_mnist_0_split
I0111 11:47:36.948344  4839 net.cpp:129] Top shape: 100 1 28 28 (78400)
I0111 11:47:36.948352  4839 net.cpp:129] Top shape: 100 1 28 28 (78400)
I0111 11:47:36.948357  4839 net.cpp:137] Memory required for data: 941200
I0111 11:47:36.948364  4839 layer_factory.hpp:77] Creating layer label_mnist_1_split
I0111 11:47:36.948371  4839 net.cpp:84] Creating Layer label_mnist_1_split
I0111 11:47:36.948377  4839 net.cpp:406] label_mnist_1_split <- label
I0111 11:47:36.948385  4839 net.cpp:380] label_mnist_1_split -> label_mnist_1_split_0
I0111 11:47:36.948393  4839 net.cpp:380] label_mnist_1_split -> label_mnist_1_split_1
I0111 11:47:36.948437  4839 net.cpp:122] Setting up label_mnist_1_split
I0111 11:47:36.948446  4839 net.cpp:129] Top shape: 100 (100)
I0111 11:47:36.948452  4839 net.cpp:129] Top shape: 100 (100)
I0111 11:47:36.948457  4839 net.cpp:137] Memory required for data: 942000
I0111 11:47:36.948462  4839 layer_factory.hpp:77] Creating layer loc_conv1
I0111 11:47:36.948475  4839 net.cpp:84] Creating Layer loc_conv1
I0111 11:47:36.948482  4839 net.cpp:406] loc_conv1 <- data_mnist_0_split_0
I0111 11:47:36.948490  4839 net.cpp:380] loc_conv1 -> loc_conv1
I0111 11:47:36.951458  4839 net.cpp:122] Setting up loc_conv1
I0111 11:47:36.951481  4839 net.cpp:129] Top shape: 100 20 24 24 (1152000)
I0111 11:47:36.951488  4839 net.cpp:137] Memory required for data: 5550000
I0111 11:47:36.951503  4839 layer_factory.hpp:77] Creating layer loc_pool1
I0111 11:47:36.951519  4839 net.cpp:84] Creating Layer loc_pool1
I0111 11:47:36.951526  4839 net.cpp:406] loc_pool1 <- loc_conv1
I0111 11:47:36.951535  4839 net.cpp:380] loc_pool1 -> loc_pool1
I0111 11:47:36.952569  4839 net.cpp:122] Setting up loc_pool1
I0111 11:47:36.952582  4839 net.cpp:129] Top shape: 100 20 12 12 (288000)
I0111 11:47:36.952589  4839 net.cpp:137] Memory required for data: 6702000
I0111 11:47:36.952594  4839 layer_factory.hpp:77] Creating layer loc_relu1
I0111 11:47:36.952600  4839 net.cpp:84] Creating Layer loc_relu1
I0111 11:47:36.952606  4839 net.cpp:406] loc_relu1 <- loc_pool1
I0111 11:47:36.952615  4839 net.cpp:367] loc_relu1 -> loc_pool1 (in-place)
I0111 11:47:36.952860  4839 net.cpp:122] Setting up loc_relu1
I0111 11:47:36.952875  4839 net.cpp:129] Top shape: 100 20 12 12 (288000)
I0111 11:47:36.952883  4839 net.cpp:137] Memory required for data: 7854000
I0111 11:47:36.952889  4839 layer_factory.hpp:77] Creating layer loc_conv2
I0111 11:47:36.952914  4839 net.cpp:84] Creating Layer loc_conv2
I0111 11:47:36.952921  4839 net.cpp:406] loc_conv2 <- loc_pool1
I0111 11:47:36.952932  4839 net.cpp:380] loc_conv2 -> loc_conv2
I0111 11:47:36.968554  4839 net.cpp:122] Setting up loc_conv2
I0111 11:47:36.968588  4839 net.cpp:129] Top shape: 100 20 8 8 (128000)
I0111 11:47:36.968597  4839 net.cpp:137] Memory required for data: 8366000
I0111 11:47:36.968616  4839 layer_factory.hpp:77] Creating layer loc_pool2
I0111 11:47:36.968629  4839 net.cpp:84] Creating Layer loc_pool2
I0111 11:47:36.968641  4839 net.cpp:406] loc_pool2 <- loc_conv2
I0111 11:47:36.968649  4839 net.cpp:380] loc_pool2 -> loc_pool2
I0111 11:47:36.968721  4839 net.cpp:122] Setting up loc_pool2
I0111 11:47:36.968732  4839 net.cpp:129] Top shape: 100 20 4 4 (32000)
I0111 11:47:36.968739  4839 net.cpp:137] Memory required for data: 8494000
I0111 11:47:36.968747  4839 layer_factory.hpp:77] Creating layer loc_relu2
I0111 11:47:36.968757  4839 net.cpp:84] Creating Layer loc_relu2
I0111 11:47:36.968765  4839 net.cpp:406] loc_relu2 <- loc_pool2
I0111 11:47:36.968772  4839 net.cpp:367] loc_relu2 -> loc_pool2 (in-place)
I0111 11:47:36.969676  4839 net.cpp:122] Setting up loc_relu2
I0111 11:47:36.969715  4839 net.cpp:129] Top shape: 100 20 4 4 (32000)
I0111 11:47:36.969768  4839 net.cpp:137] Memory required for data: 8622000
I0111 11:47:36.969787  4839 layer_factory.hpp:77] Creating layer loc_ip1
I0111 11:47:36.969812  4839 net.cpp:84] Creating Layer loc_ip1
I0111 11:47:36.969820  4839 net.cpp:406] loc_ip1 <- loc_pool2
I0111 11:47:36.969830  4839 net.cpp:380] loc_ip1 -> loc_ip1
I0111 11:47:36.970065  4839 net.cpp:122] Setting up loc_ip1
I0111 11:47:36.970075  4839 net.cpp:129] Top shape: 100 20 (2000)
I0111 11:47:36.970080  4839 net.cpp:137] Memory required for data: 8630000
I0111 11:47:36.970094  4839 layer_factory.hpp:77] Creating layer loc_relu3
I0111 11:47:36.970103  4839 net.cpp:84] Creating Layer loc_relu3
I0111 11:47:36.970108  4839 net.cpp:406] loc_relu3 <- loc_ip1
I0111 11:47:36.970115  4839 net.cpp:367] loc_relu3 -> loc_ip1 (in-place)
I0111 11:47:36.970654  4839 net.cpp:122] Setting up loc_relu3
I0111 11:47:36.970667  4839 net.cpp:129] Top shape: 100 20 (2000)
I0111 11:47:36.970674  4839 net.cpp:137] Memory required for data: 8638000
I0111 11:47:36.970679  4839 layer_factory.hpp:77] Creating layer loc_reg
I0111 11:47:36.970688  4839 net.cpp:84] Creating Layer loc_reg
I0111 11:47:36.970695  4839 net.cpp:406] loc_reg <- loc_ip1
I0111 11:47:36.970702  4839 net.cpp:380] loc_reg -> theta
Setting 0th position to 1
Setting 1th position to 0
Setting 2th position to 0
Setting 3th position to 0
Setting 4th position to 1
Setting 5th position to 0
I0111 11:47:36.970912  4839 net.cpp:122] Setting up loc_reg
I0111 11:47:36.970922  4839 net.cpp:129] Top shape: 100 6 (600)
I0111 11:47:36.970928  4839 net.cpp:137] Memory required for data: 8640400
I0111 11:47:36.970937  4839 layer_factory.hpp:77] Creating layer st_layer
I0111 11:47:36.970947  4839 net.cpp:84] Creating Layer st_layer
I0111 11:47:36.970952  4839 net.cpp:406] st_layer <- data_mnist_0_split_1
I0111 11:47:36.970959  4839 net.cpp:406] st_layer <- theta
I0111 11:47:36.970968  4839 net.cpp:380] st_layer -> st_output
		Spatial Transformer Layer:: LayerSetUp: 	Getting output_H_ and output_W_
		Spatial Transformer Layer:: LayerSetUp: 	output_H_ = 28, output_W_ = 28
		Spatial Transformer Layer:: LayerSetUp: 	Getting pre-defined parameters
		Spatial Transformer Layer:: LayerSetUp: 	Initializing the matrix for output grid
		Spatial Transformer Layer:: LayerSetUp: 	Initializing the matrix for input grid
		Spatial Transformer Layer:: LayerSetUp: 	Initialization finished.
I0111 11:47:36.971140  4839 net.cpp:122] Setting up st_layer
I0111 11:47:36.971148  4839 net.cpp:129] Top shape: 100 1 28 28 (78400)
I0111 11:47:36.971154  4839 net.cpp:137] Memory required for data: 8954000
I0111 11:47:36.971159  4839 layer_factory.hpp:77] Creating layer conv1
I0111 11:47:36.971171  4839 net.cpp:84] Creating Layer conv1
I0111 11:47:36.971176  4839 net.cpp:406] conv1 <- st_output
I0111 11:47:36.971184  4839 net.cpp:380] conv1 -> conv1
I0111 11:47:36.976653  4839 net.cpp:122] Setting up conv1
I0111 11:47:36.976680  4839 net.cpp:129] Top shape: 100 32 20 20 (1280000)
I0111 11:47:36.976689  4839 net.cpp:137] Memory required for data: 14074000
I0111 11:47:36.976706  4839 layer_factory.hpp:77] Creating layer pool1
I0111 11:47:36.976718  4839 net.cpp:84] Creating Layer pool1
I0111 11:47:36.976725  4839 net.cpp:406] pool1 <- conv1
I0111 11:47:36.976734  4839 net.cpp:380] pool1 -> pool1
I0111 11:47:36.976789  4839 net.cpp:122] Setting up pool1
I0111 11:47:36.976799  4839 net.cpp:129] Top shape: 100 32 10 10 (320000)
I0111 11:47:36.976804  4839 net.cpp:137] Memory required for data: 15354000
I0111 11:47:36.976809  4839 layer_factory.hpp:77] Creating layer relu1
I0111 11:47:36.976817  4839 net.cpp:84] Creating Layer relu1
I0111 11:47:36.976824  4839 net.cpp:406] relu1 <- pool1
I0111 11:47:36.976830  4839 net.cpp:367] relu1 -> pool1 (in-place)
I0111 11:47:36.978690  4839 net.cpp:122] Setting up relu1
I0111 11:47:36.978703  4839 net.cpp:129] Top shape: 100 32 10 10 (320000)
I0111 11:47:36.978708  4839 net.cpp:137] Memory required for data: 16634000
I0111 11:47:36.978713  4839 layer_factory.hpp:77] Creating layer conv2
I0111 11:47:36.978729  4839 net.cpp:84] Creating Layer conv2
I0111 11:47:36.978735  4839 net.cpp:406] conv2 <- pool1
I0111 11:47:36.978744  4839 net.cpp:380] conv2 -> conv2
I0111 11:47:36.982213  4839 net.cpp:122] Setting up conv2
I0111 11:47:36.982237  4839 net.cpp:129] Top shape: 100 32 4 4 (51200)
I0111 11:47:36.982264  4839 net.cpp:137] Memory required for data: 16838800
I0111 11:47:36.982275  4839 layer_factory.hpp:77] Creating layer pool2
I0111 11:47:36.982286  4839 net.cpp:84] Creating Layer pool2
I0111 11:47:36.982293  4839 net.cpp:406] pool2 <- conv2
I0111 11:47:36.982302  4839 net.cpp:380] pool2 -> pool2
I0111 11:47:36.982385  4839 net.cpp:122] Setting up pool2
I0111 11:47:36.982398  4839 net.cpp:129] Top shape: 100 32 2 2 (12800)
I0111 11:47:36.982404  4839 net.cpp:137] Memory required for data: 16890000
I0111 11:47:36.982411  4839 layer_factory.hpp:77] Creating layer relu2
I0111 11:47:36.982419  4839 net.cpp:84] Creating Layer relu2
I0111 11:47:36.982425  4839 net.cpp:406] relu2 <- pool2
I0111 11:47:36.982434  4839 net.cpp:367] relu2 -> pool2 (in-place)
I0111 11:47:36.983089  4839 net.cpp:122] Setting up relu2
I0111 11:47:36.983103  4839 net.cpp:129] Top shape: 100 32 2 2 (12800)
I0111 11:47:36.983109  4839 net.cpp:137] Memory required for data: 16941200
I0111 11:47:36.983115  4839 layer_factory.hpp:77] Creating layer classification
I0111 11:47:36.983136  4839 net.cpp:84] Creating Layer classification
I0111 11:47:36.983142  4839 net.cpp:406] classification <- pool2
I0111 11:47:36.983151  4839 net.cpp:380] classification -> class
I0111 11:47:36.983331  4839 net.cpp:122] Setting up classification
I0111 11:47:36.983341  4839 net.cpp:129] Top shape: 100 10 (1000)
I0111 11:47:36.983347  4839 net.cpp:137] Memory required for data: 16945200
I0111 11:47:36.983357  4839 layer_factory.hpp:77] Creating layer class_classification_0_split
I0111 11:47:36.983366  4839 net.cpp:84] Creating Layer class_classification_0_split
I0111 11:47:36.983372  4839 net.cpp:406] class_classification_0_split <- class
I0111 11:47:36.983381  4839 net.cpp:380] class_classification_0_split -> class_classification_0_split_0
I0111 11:47:36.983391  4839 net.cpp:380] class_classification_0_split -> class_classification_0_split_1
I0111 11:47:36.983440  4839 net.cpp:122] Setting up class_classification_0_split
I0111 11:47:36.983449  4839 net.cpp:129] Top shape: 100 10 (1000)
I0111 11:47:36.983456  4839 net.cpp:129] Top shape: 100 10 (1000)
I0111 11:47:36.983463  4839 net.cpp:137] Memory required for data: 16953200
I0111 11:47:36.983469  4839 layer_factory.hpp:77] Creating layer accuracy
I0111 11:47:36.983477  4839 net.cpp:84] Creating Layer accuracy
I0111 11:47:36.983484  4839 net.cpp:406] accuracy <- class_classification_0_split_0
I0111 11:47:36.983492  4839 net.cpp:406] accuracy <- label_mnist_1_split_0
I0111 11:47:36.983500  4839 net.cpp:380] accuracy -> accuracy
…
