…
I0111 11:45:50.750353  4344 net.cpp:294] The NetState phase (0) differed from the phase (1) specified by a rule in layer mnist
I0111 11:45:50.750375  4344 net.cpp:294] The NetState phase (0) differed from the phase (1) specified by a rule in layer accuracy
I0111 11:45:50.750473  4344 net.cpp:51] Initializing net from parameters: 
name: "CNN"
state {
  phase: TRAIN
  level: 0
  stage: ""
}
layer {
  name: "mnist"
  type: "Data"
  top: "data"
  top: "label"
  include {
    phase: TRAIN
  }
  transform_param {
    scale: 0.00390625
  }
  data_param {
    source: "examples/mnist/mnist_r_train_lmdb"
    batch_size: 256
    backend: LMDB
  }
}
layer {
  name: "conv1"
  type: "Convolution"
  bottom: "data"
  top: "conv1"
  convolution_param {
    num_output: 32
    kernel_size: 9
    stride: 1
    weight_filler {
      type: "xavier"
    }
    bias_filler {
      type: "constant"
    }
  }
}
layer {
  name: "pool1"
  type: "Pooling"
  bottom: "conv1"
  top: "pool1"
  pooling_param {
    pool: MAX
    kernel_size: 2
    stride: 2
  }
}
layer {
  name: "relu1"
  type: "ReLU"
  bottom: "pool1"
  top: "pool1"
}
layer {
  name: "conv2"
  type: "Convolution"
  bottom: "pool1"
  top: "conv2"
  convolution_param {
    num_output: 32
    kernel_size: 7
    stride: 1
    weight_filler {
      type: "xavier"
    }
    bias_filler {
      type: "constant"
    }
  }
}
layer {
  name: "pool2"
  type: "Pooling"
  bottom: "conv2"
  top: "pool2"
  pooling_param {
    pool: MAX
    kernel_size: 2
    stride: 2
  }
}
layer {
  name: "relu2"
  type: "ReLU"
  bottom: "pool2"
  top: "pool2"
}
layer {
  name: "classification"
  type: "InnerProduct"
  bottom: "pool2"
  top: "class"
  inner_product_param {
    num_output: 10
    weight_filler {
      type: "xavier"
    }
    bias_filler {
      type: "constant"
    }
  }
}
layer {
  name: "loss"
  type: "SoftmaxWithLoss"
  bottom: "class"
  bottom: "label"
  top: "loss"
}
I0111 11:45:50.750567  4344 layer_factory.hpp:77] Creating layer mnist
I0111 11:45:50.750654  4344 db_lmdb.cpp:35] Opened lmdb examples/mnist/mnist_r_train_lmdb
I0111 11:45:50.750679  4344 net.cpp:84] Creating Layer mnist
I0111 11:45:50.750689  4344 net.cpp:380] mnist -> data
I0111 11:45:50.750717  4344 net.cpp:380] mnist -> label
I0111 11:45:50.751448  4344 data_layer.cpp:45] output data size: 256,1,28,28
I0111 11:45:50.756798  4344 net.cpp:122] Setting up mnist
I0111 11:45:50.756829  4344 net.cpp:129] Top shape: 256 1 28 28 (200704)
I0111 11:45:50.756837  4344 net.cpp:129] Top shape: 256 (256)
I0111 11:45:50.756842  4344 net.cpp:137] Memory required for data: 803840
I0111 11:45:50.756855  4344 layer_factory.hpp:77] Creating layer conv1
I0111 11:45:50.756898  4344 net.cpp:84] Creating Layer conv1
I0111 11:45:50.756907  4344 net.cpp:406] conv1 <- data
I0111 11:45:50.756925  4344 net.cpp:380] conv1 -> conv1
I0111 11:45:55.438522  4344 net.cpp:122] Setting up conv1
I0111 11:45:55.438614  4344 net.cpp:129] Top shape: 256 32 20 20 (3276800)
I0111 11:45:55.438633  4344 net.cpp:137] Memory required for data: 13911040
I0111 11:45:55.438691  4344 layer_factory.hpp:77] Creating layer pool1
I0111 11:45:55.438732  4344 net.cpp:84] Creating Layer pool1
I0111 11:45:55.438751  4344 net.cpp:406] pool1 <- conv1
I0111 11:45:55.438784  4344 net.cpp:380] pool1 -> pool1
I0111 11:45:55.439039  4344 net.cpp:122] Setting up pool1
I0111 11:45:55.439080  4344 net.cpp:129] Top shape: 256 32 10 10 (819200)
I0111 11:45:55.439103  4344 net.cpp:137] Memory required for data: 17187840
I0111 11:45:55.439121  4344 layer_factory.hpp:77] Creating layer relu1
I0111 11:45:55.439224  4344 net.cpp:84] Creating Layer relu1
I0111 11:45:55.439244  4344 net.cpp:406] relu1 <- pool1
I0111 11:45:55.439265  4344 net.cpp:367] relu1 -> pool1 (in-place)
I0111 11:45:55.440783  4344 net.cpp:122] Setting up relu1
I0111 11:45:55.440851  4344 net.cpp:129] Top shape: 256 32 10 10 (819200)
I0111 11:45:55.440871  4344 net.cpp:137] Memory required for data: 20464640
I0111 11:45:55.440889  4344 layer_factory.hpp:77] Creating layer conv2
I0111 11:45:55.440935  4344 net.cpp:84] Creating Layer conv2
I0111 11:45:55.440954  4344 net.cpp:406] conv2 <- pool1
I0111 11:45:55.440980  4344 net.cpp:380] conv2 -> conv2
I0111 11:45:55.455283  4344 net.cpp:122] Setting up conv2
I0111 11:45:55.455318  4344 net.cpp:129] Top shape: 256 32 4 4 (131072)
I0111 11:45:55.455327  4344 net.cpp:137] Memory required for data: 20988928
I0111 11:45:55.455348  4344 layer_factory.hpp:77] Creating layer pool2
I0111 11:45:55.455365  4344 net.cpp:84] Creating Layer pool2
I0111 11:45:55.455375  4344 net.cpp:406] pool2 <- conv2
I0111 11:45:55.455387  4344 net.cpp:380] pool2 -> pool2
I0111 11:45:55.455483  4344 net.cpp:122] Setting up pool2
I0111 11:45:55.455493  4344 net.cpp:129] Top shape: 256 32 2 2 (32768)
I0111 11:45:55.455502  4344 net.cpp:137] Memory required for data: 21120000
I0111 11:45:55.455509  4344 layer_factory.hpp:77] Creating layer relu2
I0111 11:45:55.455521  4344 net.cpp:84] Creating Layer relu2
I0111 11:45:55.455529  4344 net.cpp:406] relu2 <- pool2
I0111 11:45:55.455538  4344 net.cpp:367] relu2 -> pool2 (in-place)
I0111 11:45:55.455811  4344 net.cpp:122] Setting up relu2
I0111 11:45:55.455824  4344 net.cpp:129] Top shape: 256 32 2 2 (32768)
I0111 11:45:55.455832  4344 net.cpp:137] Memory required for data: 21251072
I0111 11:45:55.455839  4344 layer_factory.hpp:77] Creating layer classification
I0111 11:45:55.455855  4344 net.cpp:84] Creating Layer classification
I0111 11:45:55.455864  4344 net.cpp:406] classification <- pool2
I0111 11:45:55.455875  4344 net.cpp:380] classification -> class
I0111 11:45:55.456046  4344 net.cpp:122] Setting up classification
I0111 11:45:55.456058  4344 net.cpp:129] Top shape: 256 10 (2560)
I0111 11:45:55.456064  4344 net.cpp:137] Memory required for data: 21261312
I0111 11:45:55.456081  4344 layer_factory.hpp:77] Creating layer loss
I0111 11:45:55.456101  4344 net.cpp:84] Creating Layer loss
I0111 11:45:55.456110  4344 net.cpp:406] loss <- class
I0111 11:45:55.456118  4344 net.cpp:406] loss <- label
I0111 11:45:55.456130  4344 net.cpp:380] loss -> loss
I0111 11:45:55.456147  4344 layer_factory.hpp:77] Creating layer loss
…
I0111 11:45:55.457353  4344 solver.cpp:172] Creating test net (#0) specified by net file: examples/mnist_tests/CNN/CNN.prototxt
I0111 11:45:55.457386  4344 net.cpp:294] The NetState phase (1) differed from the phase (0) specified by a rule in layer mnist
I0111 11:45:55.457509  4344 net.cpp:51] Initializing net from parameters: 
name: "CNN"
state {
  phase: TEST
}
layer {
  name: "mnist"
  type: "Data"
  top: "data"
  top: "label"
  include {
    phase: TEST
  }
  transform_param {
    scale: 0.00390625
  }
  data_param {
    source: "examples/mnist/mnist_r_test_lmdb"
    batch_size: 100
    backend: LMDB
  }
}
layer {
  name: "conv1"
  type: "Convolution"
  bottom: "data"
  top: "conv1"
  convolution_param {
    num_output: 32
    kernel_size: 9
    stride: 1
    weight_filler {
      type: "xavier"
    }
    bias_filler {
      type: "constant"
    }
  }
}
layer {
  name: "pool1"
  type: "Pooling"
  bottom: "conv1"
  top: "pool1"
  pooling_param {
    pool: MAX
    kernel_size: 2
    stride: 2
  }
}
layer {
  name: "relu1"
  type: "ReLU"
  bottom: "pool1"
  top: "pool1"
}
layer {
  name: "conv2"
  type: "Convolution"
  bottom: "pool1"
  top: "conv2"
  convolution_param {
    num_output: 32
    kernel_size: 7
    stride: 1
    weight_filler {
      type: "xavier"
    }
    bias_filler {
      type: "constant"
    }
  }
}
layer {
  name: "pool2"
  type: "Pooling"
  bottom: "conv2"
  top: "pool2"
  pooling_param {
    pool: MAX
    kernel_size: 2
    stride: 2
  }
}
layer {
  name: "relu2"
  type: "ReLU"
  bottom: "pool2"
  top: "pool2"
}
layer {
  name: "classification"
  type: "InnerProduct"
  bottom: "pool2"
  top: "class"
  inner_product_param {
    num_output: 10
    weight_filler {
      type: "xavier"
    }
    bias_filler {
      type: "constant"
    }
  }
}
layer {
  name: "accuracy"
  type: "Accuracy"
  bottom: "class"
  bottom: "label"
  top: "accuracy"
  include {
    phase: TEST
  }
}
layer {
  name: "loss"
  type: "SoftmaxWithLoss"
  bottom: "class"
  bottom: "label"
  top: "loss"
}
I0111 11:45:55.457669  4344 layer_factory.hpp:77] Creating layer mnist
I0111 11:45:55.457736  4344 db_lmdb.cpp:35] Opened lmdb examples/mnist/mnist_r_test_lmdb
I0111 11:45:55.457754  4344 net.cpp:84] Creating Layer mnist
I0111 11:45:55.457764  4344 net.cpp:380] mnist -> data
I0111 11:45:55.457777  4344 net.cpp:380] mnist -> label
I0111 11:45:55.457893  4344 data_layer.cpp:45] output data size: 100,1,28,28
I0111 11:45:55.474046  4344 net.cpp:122] Setting up mnist
I0111 11:45:55.474077  4344 net.cpp:129] Top shape: 100 1 28 28 (78400)
I0111 11:45:55.474104  4344 net.cpp:129] Top shape: 100 (100)
I0111 11:45:55.474109  4344 net.cpp:137] Memory required for data: 314000
I0111 11:45:55.474117  4344 layer_factory.hpp:77] Creating layer label_mnist_1_split
I0111 11:45:55.474131  4344 net.cpp:84] Creating Layer label_mnist_1_split
I0111 11:45:55.474139  4344 net.cpp:406] label_mnist_1_split <- label
I0111 11:45:55.474149  4344 net.cpp:380] label_mnist_1_split -> label_mnist_1_split_0
I0111 11:45:55.474164  4344 net.cpp:380] label_mnist_1_split -> label_mnist_1_split_1
I0111 11:45:55.474246  4344 net.cpp:122] Setting up label_mnist_1_split
I0111 11:45:55.474256  4344 net.cpp:129] Top shape: 100 (100)
I0111 11:45:55.474262  4344 net.cpp:129] Top shape: 100 (100)
I0111 11:45:55.474268  4344 net.cpp:137] Memory required for data: 314800
I0111 11:45:55.474274  4344 layer_factory.hpp:77] Creating layer conv1
I0111 11:45:55.474290  4344 net.cpp:84] Creating Layer conv1
I0111 11:45:55.474298  4344 net.cpp:406] conv1 <- data
I0111 11:45:55.474306  4344 net.cpp:380] conv1 -> conv1
I0111 11:45:55.476135  4344 net.cpp:122] Setting up conv1
I0111 11:45:55.476156  4344 net.cpp:129] Top shape: 100 32 20 20 (1280000)
I0111 11:45:55.476163  4344 net.cpp:137] Memory required for data: 5434800
I0111 11:45:55.476179  4344 layer_factory.hpp:77] Creating layer pool1
I0111 11:45:55.476191  4344 net.cpp:84] Creating Layer pool1
I0111 11:45:55.476199  4344 net.cpp:406] pool1 <- conv1
I0111 11:45:55.476208  4344 net.cpp:380] pool1 -> pool1
I0111 11:45:55.487253  4344 net.cpp:122] Setting up pool1
I0111 11:45:55.487274  4344 net.cpp:129] Top shape: 100 32 10 10 (320000)
I0111 11:45:55.487282  4344 net.cpp:137] Memory required for data: 6714800
I0111 11:45:55.487290  4344 layer_factory.hpp:77] Creating layer relu1
I0111 11:45:55.487303  4344 net.cpp:84] Creating Layer relu1
I0111 11:45:55.487313  4344 net.cpp:406] relu1 <- pool1
I0111 11:45:55.487344  4344 net.cpp:367] relu1 -> pool1 (in-place)
I0111 11:45:55.487875  4344 net.cpp:122] Setting up relu1
I0111 11:45:55.487890  4344 net.cpp:129] Top shape: 100 32 10 10 (320000)
I0111 11:45:55.487896  4344 net.cpp:137] Memory required for data: 7994800
I0111 11:45:55.487903  4344 layer_factory.hpp:77] Creating layer conv2
I0111 11:45:55.487918  4344 net.cpp:84] Creating Layer conv2
I0111 11:45:55.487928  4344 net.cpp:406] conv2 <- pool1
I0111 11:45:55.487937  4344 net.cpp:380] conv2 -> conv2
I0111 11:45:55.489953  4344 net.cpp:122] Setting up conv2
I0111 11:45:55.489982  4344 net.cpp:129] Top shape: 100 32 4 4 (51200)
I0111 11:45:55.489990  4344 net.cpp:137] Memory required for data: 8199600
I0111 11:45:55.490006  4344 layer_factory.hpp:77] Creating layer pool2
I0111 11:45:55.490041  4344 net.cpp:84] Creating Layer pool2
I0111 11:45:55.490052  4344 net.cpp:406] pool2 <- conv2
I0111 11:45:55.490061  4344 net.cpp:380] pool2 -> pool2
I0111 11:45:55.490114  4344 net.cpp:122] Setting up pool2
I0111 11:45:55.490123  4344 net.cpp:129] Top shape: 100 32 2 2 (12800)
I0111 11:45:55.490129  4344 net.cpp:137] Memory required for data: 8250800
I0111 11:45:55.490135  4344 layer_factory.hpp:77] Creating layer relu2
I0111 11:45:55.490149  4344 net.cpp:84] Creating Layer relu2
I0111 11:45:55.490156  4344 net.cpp:406] relu2 <- pool2
I0111 11:45:55.490164  4344 net.cpp:367] relu2 -> pool2 (in-place)
I0111 11:45:55.490382  4344 net.cpp:122] Setting up relu2
I0111 11:45:55.490392  4344 net.cpp:129] Top shape: 100 32 2 2 (12800)
I0111 11:45:55.490398  4344 net.cpp:137] Memory required for data: 8302000
I0111 11:45:55.490404  4344 layer_factory.hpp:77] Creating layer classification
I0111 11:45:55.490417  4344 net.cpp:84] Creating Layer classification
I0111 11:45:55.490425  4344 net.cpp:406] classification <- pool2
I0111 11:45:55.490434  4344 net.cpp:380] classification -> class
I0111 11:45:55.490569  4344 net.cpp:122] Setting up classification
I0111 11:45:55.490578  4344 net.cpp:129] Top shape: 100 10 (1000)
I0111 11:45:55.490584  4344 net.cpp:137] Memory required for data: 8306000
I0111 11:45:55.490597  4344 layer_factory.hpp:77] Creating layer class_classification_0_split
I0111 11:45:55.490607  4344 net.cpp:84] Creating Layer class_classification_0_split
I0111 11:45:55.490612  4344 net.cpp:406] class_classification_0_split <- class
I0111 11:45:55.490620  4344 net.cpp:380] class_classification_0_split -> class_classification_0_split_0
I0111 11:45:55.490633  4344 net.cpp:380] class_classification_0_split -> class_classification_0_split_1
I0111 11:45:55.490676  4344 net.cpp:122] Setting up class_classification_0_split
I0111 11:45:55.490684  4344 net.cpp:129] Top shape: 100 10 (1000)
I0111 11:45:55.490691  4344 net.cpp:129] Top shape: 100 10 (1000)
I0111 11:45:55.490697  4344 net.cpp:137] Memory required for data: 8314000
I0111 11:45:55.490703  4344 layer_factory.hpp:77] Creating layer accuracy
I0111 11:45:55.490713  4344 net.cpp:84] Creating Layer accuracy
I0111 11:45:55.490720  4344 net.cpp:406] accuracy <- class_classification_0_split_0
I0111 11:45:55.490728  4344 net.cpp:406] accuracy <- label_mnist_1_split_0
I0111 11:45:55.490737  4344 net.cpp:380] accuracy -> accuracy
…
